RL/CartPlole.pth (torch, 5728 bytes, 4 tensors)

fc1.weight f4 [128, 4]
000000 a1 1a c1 be 8a 48 1c bf 16 a6 e9 c0 64 98 71 bf
       -0.3771563 -0.61048186 -7.301524 -0.94373155
000010 05 b3 4a 3f 09 6d 13 3f 6c 24 f8 40 d2 96 d2 3f
       0.7917941 0.5758825 7.754446 1.6452277
000020 40 08 1b 3f 76 11 b7 bd 0d c8 c7 bf 4e b4 2f be
       0.60559464 -0.08938877 -1.5607926 -0.17158625
000030 28 aa e9 bf 9b 97 6b bf 88 50 9f bf 1e 22 dd be
       -1.8255053 -0.92028207 -1.2446451 -0.43190092
000040 d5 85 03 40 f0 63 7b 3f 60 11 42 40 31 aa 22 3f
       2.0550435 0.9819937 3.0323105 0.6354094
000050 4b 8a 67 be f5 16 e0 3e 07 2c e8 bc 8a 5d 13 3f
       -0.22611348 0.43767515 -0.028341306 0.57564604
000060 26 47 ac 3e 50 df 63 3e 50 cc 6a bf f6 9d 50 bf
       0.33648032 0.22253156 -0.91718006 -0.8149103
000070 9b 1b 3b 40 c1 4a 87 3f c6 89 81 bf 6f a7 49 3f
       2.92356 1.0569688 -1.012017 0.7877111
000080 49 e4 2a 3e 47 81 95 bd 94 f3 2f 3e 0c 14 c9 3e
       0.16688646 -0.07300048 0.17182761 0.39273107
000090 42 f0 b7 bf b5 2f 93 3e 83 ab 32 40 96 02 ab 3e
       -1.4370196 0.28747335 2.7917182 0.3340041
0000a0 f1 61 a8 bf 23 48 ca be 9d 89 26 3f e3 0f 70 be
       -1.3154889 -0.3950816 0.6505373 -0.2344356
0000b0 85 d6 de bf 82 00 ef bc 03 d5 e8 3f f9 19 9b 3d
       -1.7409216 -0.029175047 1.8190006 0.07573313
0000c0 f8 6d 46 bf a2 b1 83 3f 4d 87 a4 40 ea bd e2 3f
       -0.7751155 1.0288584 5.141516 1.7714207
0000d0 17 8f c4 3f fd 55 7f bf 8d 3f fa bf 42 36 aa bf
       1.5356168 -0.9974058 -1.9550644 -1.3297808
0000e0 30 60 9b bf ae e3 6c be f1 9d 6d 3f ff 0b 97 be
       -1.2138729 -0.23133728 0.92819124 -0.2950134
0000f0 1d 3f 3c 3d 18 dd 83 be c4 a9 cd c0 bc a8 53 bf
       0.045958627 -0.2575462 -6.4269733 -0.82679343
000100 c1 d3 dd 3d 50 ea 0b 3d f1 f5 cd 3d ac fd 6f 3e
       0.108314045 0.034159005 0.10056675 0.23436612
000110 9e 86 dd 3f ed 09 b0 3d 3d ee d2 3d b5 26 bd 3d
       1.7306707 0.08595643 0.102993466 0.092358984
000120 34 d1 b8 be 8f 44 0e 3f 66 4e cf 3c b8 1c 17 3e
       -0.3609711 0.5557336 0.025305938 0.14757049
000130 24 1e 91 3e ab a4 e0 be 5b 82 a3 be 4b 38 cf 3b
       0.28343308 -0.43875632 -0.3193539 0.0063238493
000140 ca fe 61 3f c6 0b 3c bf cf 5f 95 c0 ae f4 bf bf
       0.882794 -0.73455465 -4.6679454 -1.4996545
000150 8e 74 4b 3d 6c 14 03 be 77 0b 1d bd c7 87 3d be
       0.049671702 -0.12800759 -0.03834101 -0.18508826
000160 2d f6 88 bf 30 9a 99 3e 8a ed 25 40 a4 05 f6 3e
       -1.0700127 0.30000448 2.5926232 0.48051178
000170 4e e3 c8 3f 56 92 49 3e d8 38 0c c0 4e 34 0a bf
       1.5694368 0.19684729 -2.1909695 -0.5398606
000180 d0 42 9a 3f 4c 39 5d bf 92 d9 ae c0 f4 98 d6 bf
       1.205164 -0.86415553 -5.464059 -1.6765428
000190 95 13 65 40 b5 85 cb 3e 52 18 d0 3e 52 61 a6 3d
       3.5793202 0.39750448 0.40643555 0.08124031
0001a0 4d 83 9a bf 13 af ca bf 39 fb ef c0 04 ad a5 bf
       -1.207132 -1.5834678 -7.499417 -1.2943425
0001b0 81 3d e4 bf ae 84 71 bf 4c 70 1a c0 ef 9d 89 bf
       -1.783127 -0.9434308 -2.413104 -1.0751323
0001c0 de 99 35 40 21 e0 80 3f c8 0c f8 bf 9e ef 00 3e
       2.8375163 1.0068399 -1.93789 0.12591407
0001d0 ea 1a f5 bf 31 90 7c bf fa d8 fc bf 2e 73 4e bf
       -1.9148839 -0.9865752 -1.9753716 -0.806445
0001e0 20 fe 65 3e cc 83 92 3f bd 62 1b 40 9f 87 83 3f
       0.22460222 1.1446471 2.4279015 1.0275763
0001f0 71 61 ae be c8 f4 97 bf f3 ba a7 c0 c0 39 98 bf
       -0.34058717 -1.1871576 -5.241571 -1.1892624
000200 15 97 a4 bf 6f 40 72 bf 9c 0e a3 bd 61 fb 0c bf
       -1.2858607 -0.9462957 -0.07961771 -0.55071074
000210 f1 6b 12 c0 df ae 42 bf 12 28 0f 3f 27 ef bd be
       -2.2878382 -0.7604808 0.5592052 -0.3709652
000220 e2 d9 dd bf 3d 03 70 3f 20 29 87 40 57 7c 86 3f
       -1.7332118 0.9375494 4.22377 1.0506696
000230 74 25 2b 40 65 e1 2a 40 7c 6a 5b 40 13 fc cd 3f
       2.674161 2.670007 3.4283743 1.6092552
000240 dd d2 2a c0 8f c6 ba bf d3 d0 8b bf 66 ab 1b bf
       -2.66912 -1.4591845 -1.0923103 -0.6080841
000250 8f be 52 3d bb 00 9a bd 30 6a 02 3f e6 a8 71 3e
       0.051451262 -0.075196706 0.5094328 0.23599586
000260 13 c8 87 3f 53 f1 86 bf 84 68 76 c0 97 67 00 c0
       1.0607933 -1.0542396 -3.8501291 -2.0063226
000270 2f 6a 7e 3e 98 7e e6 be 42 f5 43 bd 72 13 88 be
       0.24845193 -0.45018458 -0.047841318 -0.26577336
000280 0f 65 c3 bf e7 92 93 bf bf 27 58 c0 f6 b3 6a bf
       -1.5265216 -1.1529206 -3.377426 -0.9168085
000290 1d f0 b6 bf 02 b8 6f bf d2 b3 da bf a5 08 5f be
       -1.4292027 -0.9364015 -1.7086127 -0.21780641
0002a0 61 b0 6c 3e cc db 97 3d a3 4d 51 bf 61 92 ad be
       0.23114158 0.0741497 -0.8175909 -0.3390074
0002b0 03 11 ad 3f a5 5a f2 3d 1c e5 7d c0 f2 28 9d 3d
       1.3520817 0.11833695 -3.9671087 0.07673825
0002c0 f2 52 a0 bf 0d b2 b6 bf 33 74 96 c0 72 93 98 bf
       -1.2525313 -1.4273087 -4.7016845 -1.1919997
0002d0 3a 2e dd 3b ae e3 ce 3d 73 87 d6 bd de 40 2e be
       0.0067498954 0.1010202 -0.10475054 -0.17016932
0002e0 5a 73 15 3f 50 25 c2 3d 24 e0 a1 bf 70 05 23 bd
       0.5837914 0.09479773 -1.2646527 -0.039800107
0002f0 51 a5 b4 bf bc 53 44 be 7a 0e 35 40 4c 64 c0 3e
       -1.411295 -0.19172567 2.8290086 0.3757652
000300 b1 25 c6 3f b8 72 19 3f 37 10 27 3f 19 d5 47 3e
       1.5480253 0.5994067 0.65259117 0.19514884
000310 4c ed 29 3e 2e ce fc 3e 41 26 36 bf 7e a1 f9 be
       0.16594428 0.49376053 -0.7115212 -0.4875602
000320 5f 62 c4 3f 43 10 e7 3e aa 8a 55 c0 10 1f 63 bf
       1.534252 0.45129594 -3.3365884 -0.8871927
000330 74 69 02 bf 73 d6 33 3f a1 30 87 be ee 68 5a 3e
       -0.5094216 0.702491 -0.26404288 0.2132909
000340 83 93 8b 3d 1b 18 4a bd 92 79 92 bc de 3c 62 3c
       0.06815245 -0.049339395 -0.017880235 0.013808457
000350 86 18 05 3d 65 a4 8c bd 41 47 f7 3b 44 2c 83 3e
       0.03249409 -0.06867293 0.007546336 0.2561971
000360 67 71 61 bf e3 e5 a5 bf 7d cd 5f c0 d1 d0 5e bf
       -0.88063663 -1.2960781 -3.496917 -0.8703738
000370 8a bb 0d 40 5e 87 92 3f c1 ac d0 bf f9 5e db 3d
       2.2145715 1.1447561 -1.630272 0.10711474
000380 36 41 de 3e b4 be 3f 3e 8e 8b fc bf af 23 a1 be
       0.43409127 0.18725091 -1.9730089 -0.31472537
000390 a7 61 37 bf c4 79 4d 3f 40 19 ab 3f 70 23 0f 3f
       -0.7163338 0.80263925 1.3367081 0.5591345
0003a0 dc 28 fe 3e 36 77 e5 3e f2 63 07 bf f4 bb db bd
       0.49640548 0.44817513 -0.5288688 -0.107292086
0003b0 81 f2 26 bf c9 1d 0a bf a4 48 c3 3f 77 ea 28 bd
       -0.6521378 -0.539517 1.5256543 -0.041239228
0003c0 a2 9d 4b 3f d5 98 d0 be ca c1 3f c0 5a 87 44 bf
       0.79537404 -0.40741602 -2.996203 -0.7676903
0003d0 16 05 2d 3f 30 76 54 bf 77 29 4f c0 8b d7 b4 bf
       0.67585886 -0.8299284 -3.2369058 -1.4128278
0003e0 4a 89 d0 bf 24 1a 92 be 07 e8 32 40 2b ac 18 3c
       -1.6291897 -0.2853557 2.7954118 0.009318392
0003f0 db 8c 45 3f ec 91 e3 be 5e 20 f4 bf b2 35 b0 be
       0.77168053 -0.44447267 -1.9072378 -0.34415966

fc1.bias f4 [128]
000000 54 e4 6f 3f 6a b3 ac bf b3 2a cf 3f 6d 76 ed 3e
       0.93707776 -1.3492253 1.6184906 0.46379414
000010 b3 8a 0e c0 0f 57 96 3f d9 33 f6 3f 9e da 2e be
       -2.2272155 1.1745318 1.9234573 -0.17075583
000020 62 8f a0 3f 1f c5 89 3f 8e 76 52 3f f0 d6 20 c0
       1.2543757 1.0763282 0.8221215 -2.5131187
000030 51 ec 0e c0 2c 1c 22 c0 69 10 3c 3f bc 4a 83 3f
       -2.2331736 -2.5329695 0.7346254 1.0257182
000040 ef 9f 80 3f 8a 48 6b 3f fc 3f bc 3f 68 6e bd 3f
       1.0048808 0.9190756 1.4707026 1.4799318
000050 41 b1 f5 bf 25 d2 e5 be b2 ef fe bf 6c e7 42 3f
       -1.9194719 -0.4488689 -1.9916899 0.7613437
000060 2f e1 0c c0 69 b8 2a bf 82 3c 2b c0 d8 3a 9a 3e
       -2.201244 -0.6668764 -2.675568 0.3012302
000070 6a d3 e4 3e 68 af 88 3e 1f ff 15 3f 18 54 93 3f
       0.44692546 0.26696324 0.5859241 1.1510038
000080 2e 68 4e 3f a4 3f 55 3f b5 40 6c 3f 01 ac 30 3f
       0.80627716 0.8330023 0.92286235 0.6901246
000090 27 69 03 c0 cc c8 b7 3f 9d c0 10 c0 e1 ed 0a bf
       -2.053293 1.4358153 -2.2617562 -0.54269224
0000a0 0a 7a b4 3d cf 4a 55 bf 2c d9 e6 3f ba db 89 3f
       0.088123396 -0.83317274 1.8035026 1.077018
0000b0 cc 84 23 c0 eb 74 58 3e 5a d2 d0 3f 51 94 a3 3f
       -2.5549803 0.2113835 1.6314194 1.2779638
0000c0 3e 03 3f c0 b8 6a 8b be 2f 2d 97 3e e2 c7 a4 3f
       -2.984573 -0.27229857 0.2952666 1.2873499
0000d0 a7 57 df be 68 6b b8 3f 88 60 1e bf 4c d9 00 3f
       -0.4362156 1.4407778 -0.61866045 0.5033157
0000e0 1d 9d e7 3f 5c 01 2d 3f c3 e3 08 40 6c f9 27 3f
       1.8094822 0.675802 2.1389015 0.6561496
0000f0 58 48 8e 3f 71 bc 13 c0 06 7c 5d 3f a6 04 f2 3f
       1.1115828 -2.3083766 0.8651737 1.8907669
000100 c3 fb 06 c0 db aa fa bf 62 0b e5 3e 7b 46 f6 3f
       -2.1091163 -1.9583391 0.44735247 1.9240259
000110 f9 b0 ac bf 5e 2a 7e bf f8 52 5d c0 c2 5f 90 3f
       -1.3491508 -0.992834 -3.458189 1.1279223
000120 87 ef 2c 3f 8e 05 82 bf e4 c6 87 3f 0b 2c ef 3f
       0.6755299 -1.0157945 1.0607572 1.8685316
000130 62 b0 27 3f 07 ea b3 3f 35 a5 a3 3f 13 73 10 bf
       0.65503514 1.4055794 1.2784792 -0.5642559
000140 d8 53 e7 be 84 29 8d 3f 12 12 b6 3f 43 7c 0a 3f
       -0.45181155 1.1028295 1.4224265 0.5409586
000150 5c 27 c6 bf 5b 2c f2 3e 42 24 c0 3f 4c 30 c9 be
       -1.5480762 0.47299466 1.5011065 -0.3929466
000160 30 f5 d7 be e7 cb e3 be 12 e8 6b 3e 0c 5b 0a 40
       -0.4217925 -0.44491503 0.23037747 2.161807
000170 b9 00 9b 3f 34 1a 1a c0 f9 8e a3 3f 76 b2 15 c0
       1.2109596 -2.4078493 1.2778007 -2.3390174
000180 fa b8 b6 3e 17 47 84 3f d1 83 a4 3f ec 53 f4 bf
       0.35688 1.0334195 1.2852727 -1.9088111
000190 c2 eb 91 3f 84 d4 06 3f ea c1 ed 3f b5 0d f1 3f
       1.1400073 0.52668023 1.8574803 1.8832308
0001a0 b3 49 80 3f 9e c5 87 3f 6b 8e b7 3f bd ce da 3f
       1.0022491 1.0607183 1.4340338 1.7094342
0001b0 c7 ce 76 3f 80 02 58 3f 45 c6 06 bf 89 59 05 3f
       0.9640927 0.84378815 -0.52646285 0.52089745
0001c0 7d c9 86 3e 2f 4c 9c 3e b7 3e f4 3f 6e ca f8 3f
       0.26325598 0.30526873 1.9081639 1.9436777
0001d0 9b e6 04 c0 ad 52 b1 3f 0b ba 56 3e 57 b8 c9 3f
       -2.076575 1.3853356 0.20969407 1.5759381
0001e0 93 5c 0b 3f 7e 3d 9a 3f 3f 69 e3 3e ad 88 79 3b
       0.5443813 1.2050016 0.44416234 0.003807585
0001f0 23 1c 24 3f a7 80 c1 bf 22 bb 55 3f 37 8e cf 3e
       0.64105433 -1.5117387 0.83488667 0.4053819

fc2.weight f4 [2, 128]
000000 03 80 e2 bf b7 7b 92 c0 4d 2b b0 3f 28 d2 8f 3f
       -1.7695316 -4.577602 1.3763214 1.123601
000010 99 51 7a c0 89 00 11 3f 1f bd bd 3f bf 5b 92 3f
       -3.9112303 0.5664144 1.482334 1.1434249
000020 13 6e 87 3f 2a e9 9f bf 23 a7 80 3f d4 95 3c c0
       1.0580467 -1.2493031 1.0051006 -2.9466448
000030 6f 03 8f c0 cb fb 85 c0 bf fa 0d 3f e1 23 bc bf
       -4.469169 -4.1869864 0.55460733 -1.4698449
000040 9d c3 01 3f a9 3f 4a bf e2 f6 8b 3e e4 92 3c 3f
       0.5068911 -0.7900339 0.27336794 0.7366164
000050 bb b7 d5 c0 6c 06 9d bc a7 2c 9a c0 91 1b a7 bf
       -6.678678 -0.019168101 -4.8179507 -1.3055288
000060 6d 95 0d 3f 83 72 ac bf 51 f1 00 c1 64 36 81 3f
       0.5530613 -1.3472446 -8.058915 1.0094724
000070 1c 82 a3 bf 23 94 8a 3f 83 9f 1a c0 34 d2 03 c0
       -1.2774081 1.0826458 -2.4159858 -2.0597048
000080 2f e4 76 3f 2b a3 80 3f 80 31 63 40 3c 1c ed 3f
       0.9644193 1.0049795 3.5498962 1.8524241
000090 05 52 cb bf e0 e1 37 3f 26 fc d5 c0 77 ea c3 bc
       -1.5884405 0.7182903 -6.68703 -0.023915512
0000a0 b0 ef 9c 3f d5 1a 82 bf 2a 18 b5 3f d6 42 5b 3f
       1.2260647 -1.0164438 1.4147999 0.8564886
0000b0 24 a7 80 c0 5b f7 2e 3d 8a 9c 87 3f ad 47 9a bf
       -4.020403 0.042716365 1.0594647 -1.2053124
0000c0 f1 ba be c0 2d cc 3b 3e 6c 66 b0 bf 32 6d 9f 3e
       -5.96032 0.18339606 -1.3781257 0.31137997
0000d0 a9 01 69 3d 2e 7c 2b 3f ec e4 eb bf a0 23 9a bf
       0.05688635 0.6698636 -1.8429236 -1.2042122
0000e0 f0 a8 aa 3f c3 de 7b 3e 69 67 b7 3f 10 69 b7 3e
       1.3332806 0.24596696 1.4328433 0.35822344
0000f0 30 31 ac bf b7 b1 cb c0 91 01 aa bf ce 13 b2 3f
       -1.3452511 -6.3654437 -1.3281728 1.3912294
000100 97 8d 28 c0 30 ff b3 c0 e5 14 d0 3e 14 46 b2 3f
       -2.633642 -5.624901 0.4064094 1.3927636
000110 a3 7a b5 bf 4b 1b 28 c0 84 84 d2 c0 09 6d c0 3f
       -1.4178051 -2.6266658 -6.578676 1.5033275
000120 21 c7 e7 bf c5 89 0f c0 94 a0 3f 3f e0 5c c1 3f
       -1.8107644 -2.2427838 0.748544 1.5106468
000130 19 3e a8 3e a5 f2 33 3f a0 20 10 3f 6d 4d 44 bd
       0.32859877 0.7029212 0.5629978 -0.0479254
000140 4e cf 92 3d 47 c2 8b 3f 69 9b 71 3f ac 22 a4 3f
       0.071684465 1.0918664 0.9437776 1.2823081
000150 c5 07 d7 bf a5 05 7a 3f bd bb ef 3e 40 48 89 3f
       -1.6799246 0.9766486 0.4682292 1.0725174
000160 80 1b 5b 3d cc 8c 00 bd e9 6f 37 bf 33 11 cb 3f
       0.053493023 -0.031384274 -0.71655136 1.5864624
000170 28 7d a2 3d eb 8d 7d c0 58 37 93 3e 54 aa 53 c0
       0.07934028 -3.961787 0.2875316 -3.307271
000180 ea 51 e2 bf a7 d3 86 bf 07 45 2d 3f 2c 37 a0 c0
       -1.7681248 -1.0533341 0.6768345 -5.006735
000190 b8 16 a2 3e 80 72 91 bf bf 0f dd 3f 35 7a a8 3f
       0.31657958 -1.1363068 1.727043 1.3162295
0001a0 20 2f e5 3e 75 91 16 3f 35 bd 4c 3f 99 36 bc 3f
       0.44762516 0.588157 0.79976207 1.4704162
0001b0 7a 91 b0 bf 7a a8 6d 3f cf 20 64 bf 61 ed b5 be
       -1.3794396 0.928352 -0.8911256 -0.35532668
0001c0 ea ae 86 3f 15 79 ea bf 28 ce a9 3f 67 3f 05 40
       1.052213 -1.8318201 1.3266039 2.0819948
0001d0 53 d5 17 c0 fe 30 f7 3e c0 c8 9a 3f 4d 04 8e 3f
       -2.3723953 0.48279566 1.2092514 1.1095062
0001e0 d8 43 87 3f 91 32 ed 3e c7 e1 6b 3f 66 e1 14 3f
       1.0567579 0.46327642 0.92141384 0.5815643
0001f0 a0 ad 9f bf 6f f6 62 c0 9d e6 b1 bf e9 e1 97 3f
       -1.2474861 -3.546291 -1.3898503 1.1865817
000200 d4 48 bf bf 7d d1 d9 bf fe 9f ae 3f cb 04 28 3f
       -1.49441 -1.7017056 1.3642576 0.65632313
000210 a1 e0 7b c0 41 a1 8c 3f 70 4f a9 3f 53 a5 2d 3f
       -3.9355853 1.0986711 1.3227367 0.6783039
000220 63 30 3d 3f b2 b0 16 c0 81 0b 6c 3f 15 cf 5b c0
       0.7390196 -2.3545346 0.92205054 -3.4345143
000230 49 be 75 c0 7a 75 8f c0 2c 44 3a 3f 7a 44 05 c0
       -3.839739 -4.4830904 0.7276027 -2.0823045
000240 8d 24 47 3f 63 25 6e bf e0 49 6a 3f 71 12 50 3f
       0.7779015 -0.930258 0.91518974 0.8127814
000250 53 08 4e c0 9e c9 f2 bc 35 75 8a c0 49 e9 ac bf
       -3.219258 -0.029637154 -4.3268075 -1.3508693
000260 3b 6a 96 bf aa f9 19 c0 10 e9 ec c0 19 56 a3 3f
       -1.1751169 -2.4058633 -7.40345 1.276065
000270 c0 e5 3e bf 81 1a a7 3f 52 82 80 bf 23 bf 1c c0
       -0.7456932 1.3054963 -1.0039771 -2.449166
000280 20 f2 36 3f d4 59 94 3f b8 ba 7c 40 46 4a ce 3f
       0.71463203 1.1589913 3.9488964 1.6116416
000290 20 1f eb bf b6 0a 4c 3f 9c 45 3d c0 62 68 40 3c
       -1.8368874 0.79703844 -2.9573736 0.011743637
0002a0 12 8c 82 3f 49 b1 84 bf a0 87 a9 3f 93 fa 83 3f
       1.0198996 -1.0366603 1.3244514 1.0310844
0002b0 92 69 86 c0 8a e6 b4 3d 33 1c 9b 3f d2 aa fc bf
       -4.200387 0.08833034 1.2117981 -1.973963
0002c0 db 95 c1 c0 fb bf d8 bd 1e df 7f bf b3 e6 76 3f
       -6.049543 -0.10583492 -0.99949825 0.9644577
0002d0 4a 47 be bc b7 31 63 3f 0d 99 05 c0 c1 06 74 bf
       -0.023227353 0.88747734 -2.0874665 -0.95322806
0002e0 ff 74 a9 3f c0 2c 0f 3f 0e 8b a5 3f e5 eb 0f 3f
       1.3238829 0.5592766 1.2933061 0.5621932
0002f0 00 c4 ad bf 0b 0c ff 3f 0a fd c0 bf 8b bb 90 3f
       -1.357544 1.992555 -1.5077221 1.1307234
000300 61 e9 5f c0 e7 8f b5 c0 83 7b 08 3f 98 15 aa 3f
       -3.4986193 -5.673816 0.53313464 1.328784
000310 48 88 74 bf 5d 18 07 c0 c7 3a bf c0 ab b0 8c 3f
       -0.9552045 -2.110862 -5.975925 1.0991415
000320 5f 06 60 bf 5e 96 34 c0 7f 5a 64 3f ce 45 a7 3f
       -0.8750972 -2.8216777 0.89200586 1.3068178
000330 0e 33 4b 3f b5 42 66 3f d5 fc 82 3f 87 94 85 3d
       0.7937478 0.89945537 1.0233408 0.0652247
000340 8e 48 85 3b 6a 27 95 3f 77 26 83 3f e6 af b9 3f
       0.004067487 1.1652653 1.0246114 1.4506805
000350 fe ea 31 bf 9e 07 5b 3f ee 3e 86 3f 9b b1 8a 3f
       -0.69499195 0.855585 1.0487955 1.0835451
000360 65 bd b9 3a af e1 81 bd 3a a6 8f bf 16 73 a6 3f
       0.0014170824 -0.06341874 -1.1222603 1.3003871
000370 56 2d 17 c0 69 74 96 c0 6a 0e 82 3f 94 9a 91 c0
       -2.362142 -4.70171 1.0160649 -4.5501194
000380 66 fc e8 3c b0 be 08 c0 6b dd 56 3f b1 7f c3 c0
       0.028440665 -2.1366386 0.83931607 -6.1093373
000390 7c 7f 2e 3f 79 6e e1 bf 37 98 b5 3f ab bc a3 3f
       0.68163276 -1.7611839 1.4187077 1.2791952
0003a0 68 89 0a 3f ae 60 3e 3f 4a 22 65 3f b8 ce a1 3f
       0.54115915 0.7436627 0.89505446 1.264121
0003b0 d7 36 93 bf c9 ee 4c 3f 5a be bc bf a8 f3 81 bf
       -1.1501111 0.8005186 -1.4745591 -1.0152483
0003c0 ce 7e c7 3f d7 4a 10 c0 f4 99 a0 3f 67 60 6a 3f
       1.5585573 -2.2545679 1.2546983 0.9155335
0003d0 4a 34 99 bf 98 fc 8d 3f c1 2c 7b 3f 1b b1 9e 3f
       -1.1969082 1.109271 0.98115164 1.2397798
0003e0 bd 2c 84 3f 65 f3 8e 3f 76 ed b2 3f bd 45 a8 3f
       1.0326153 1.1168028 1.3978717 1.3146282
0003f0 5e 9e 4f bf 76 d0 e5 bf 2a cc 1d bf ce c7 ad 3f
       -0.81101024 -1.7954242 -0.61639655 1.35766

fc2.bias f4 [2]
000000 b6 c6 06 3f 37 53 7c 3f
       0.5264696 0.98564476
