RL/CartPlole.pth (torch, 5291 bytes, 4 tensors)

fc1.weight f4 [128, 4]
00000000: b258 383e 9105 03bf b878 8fc0 4a20 b5bf
00000010: d5ba 95be 033f 0e3e dd62 8840 0df9 a73f
00000020: 159b 68be 90da 6e3e b325 073e 66dc dabd
00000030: 0c8b d5bf d496 4fbf d89b 17bf 9119 23be
00000040: 9866 f93f cf55 3dbf 5500 a0c0 5192 74bf
00000050: 7532 c9bd f70d 2b3f 755f 183e b5bc 813e
00000060: fe51 dabe 1cad 2d3c ad42 563f 86e0 ddbe
00000070: 997b 9f3e 3826 39bf 06eb a3bf 1556 703f
00000080: 8d06 a2bf 7107 6bbf 1ffe 5bbf 1b3b 8abe
00000090: 5f47 97bf 6520 d93e c587 8a40 3bcc 6d3f
000000a0: 1967 8bbf 2b2b 7cbf dd32 ddbe e0c4 c8be
000000b0: e325 bcbf 0bd4 db3e ca25 9140 9f95 253f
000000c0: 9bdf adbf 3b19 993f d422 d440 5ed9 833f
000000d0: f813 bdbd e842 8bbf 6618 80c0 7a8a 77bf
000000e0: b514 a4bf 15cf 7dbf d883 34bf a429 89be
000000f0: 529b 35c0 82ff 86bf 33ca 9dbe 2a9e 22bf
00000100: 8e06 6e3e 9445 643e b101 5d3e b6d0 b4bb
00000110: f340 6e40 4255 d7be 2ebf 61c0 1c93 b8bd
00000120: d76d 1e3f c413 af3f 9f82 573f d544 063e
00000130: a0a0 62bd 563f c4be ba42 8cbd 5e6f c6be
00000140: 8fbd b93f a186 bebf 1047 bcc0 96e3 06c0
00000150: 0b17 283d 9f96 0bbe fc91 f4bc 9a04 35be
00000160: e69c 70bf 23a3 b63e 44e0 8a40 8584 103f
00000170: 3f2a 773e ed19 82bf 76ec 84c0 6f08 6ebf
00000180: 6a60 303e 6745 a2bf b24a 97c0 49f7 85bf
00000190: 379e 7340 e514 18bf f503 78c0 af31 8ebd
000001a0: 1e51 e8be 9a7b 16bf 7917 58c0 8b7c 8bbf
000001b0: ba24 2abf 1642 fbbc 08b9 3f3f 3203 3a3f
000001c0: cfd2 7040 2841 1bbf 6300 79c0 b0fb a5be
000001d0: 90a6 15bf 4d2c 0cbe 693c 3c3f 03d0 1c3f
000001e0: 2f97 97bf a75e 1e3d 545f 4340 7c2c 4a3f
000001f0: ece9 7cbf 59a1 59bf 2ab6 4fc0 bd50 90bf
00000200: 0e2b cbbf a99a 4fbf 6009 89be 48c7 30be
00000210: 86a9 5bbf 7122 3fbe 67c9 9d3f d4bb 143f
00000220: 2a0e 95bf d503 f4bd 4770 4d40 176f b33f
00000230: 4aee 913f 07d7 d5bd 4917 1fc0 130d dabe
00000240: dbd7 55c0 962c af3e 7476 8140 468c 2c3e
00000250: 7bc9 b1bf cdec 84bf 7a1d 74bf bba5 4abe
00000260: c491 ba3f ea14 c8bf 0876 bcc0 8e1f 24c0
00000270: 2eb0 9f3e 8a52 c8be f07b d8bd 1c9a 4fbe
00000280: ea3b 38bf ca59 e5be c59d 8dbd 0733 d03d
00000290: d6d0 32c0 ea1d aabd 4322 2b40 d5cc c03f
000002a0: 7f83 a5bf b3ec 20bf f297 92be dc4d 38be
000002b0: 0d36 973f 8181 503f e593 1abf 0627 1a3e
000002c0: b959 0240 a837 7fbf ae7f 8bc0 eabc aebf
000002d0: fb57 fe3e 3846 5bbf f2d5 ebbf 0262 483d
000002e0: 5fe9 e43d e768 f93e 8e2f 1bbc 4445 c0be
000002f0: abb7 e1bf c9db 3f3d 6427 3f40 f402 883f
00000300: ebc1 f43f 3dee 2cbf f3b4 a5c0 7b2b 85bf
00000310: a1a2 88bf be56 a83d 4cb5 f9be 91ca 35be
00000320: 97fb c7bd 6bef cdbe 5701 86c0 4909 a8bf
00000330: 89a0 95bf 72cb b03e 79ce ac3f 41a0 8d3f
00000340: ee7c f93d 1277 983b e914 623d f182 24bd
00000350: 7d50 05be 2618 043e b6be a03e 3b0a cdbc
00000360: 4eea 9cbd 5c1b a43e bfc7 35bf b703 5fbf
00000370: 388b b63f c26e 38bf 4a4a 3bc0 a162 6fbe
00000380: ad46 77bf 730c 17bd 6d8d b93e 3d47 043f
00000390: 424d 93bf f89e a43e f3cb d53f c266 663f
000003a0: 57fe 9fbc 1506 1d3f 15fa 163f cfc9 cebe
000003b0: 70ba e4be 2f9b f8be b308 1e3f eede 133f
000003c0: 55e0 503e 194e 56bf 1f0a 80c0 66ed 0cbf
000003d0: 86bd 1cbf b1f7 9abf 33cd 32c0 6da5 a9bf
000003e0: c21d 34c0 3a97 f73e 4ad4 7540 7478 c93d
000003f0: e0f1 e73e 611d f23d dbd2 e7be 3851 d9be
0.18002585 -0.5118037 -4.483486 -1.4150479 -0.29244104 0.13891225 4.2620683 1.3122879
-0.22715409 0.23325562 0.13197975 -0.10686569 -1.6683059 -0.8108952 -0.59222174 -0.15927722
1.9484434 -0.7395906 -5.0000405 -0.9553576 -0.09824077 0.66818184 0.14880164 0.25339285
-0.4264068 0.0106003545 0.8369549 -0.4333536 0.31148985 -0.7232394 -1.2806098 0.9388135
-1.2658249 -0.9180823 -0.85934633 -0.2699822 -1.1818656 0.42407528 4.3290734 0.92889756
-1.0890838 -0.9850337 -0.43202868 -0.39212704 -1.4699062 0.42935213 4.535863 0.6468143
-1.3583864 1.1960825 6.6292515 1.030071 -0.09232324 -1.0879793 -4.0029783 -0.96695673
-1.2818819 -0.9914411 -0.7051368 -0.26789582 -2.837605 -1.0546725 -0.30818328 -0.6352259
0.23244688 0.22292167 0.21582676 -0.0055180443 3.7227142 -0.42057234 -3.5272937 -0.09012434
0.6188635 1.3677907 0.84183687 0.13112195 -0.055328965 -0.3832957 -0.068486646 -0.3875684
1.4510974 -1.4884835 -5.8836746 -2.1076407 0.0410376 -0.13631676 -0.029854767 -0.17677537
-0.9398941 0.35671338 4.339876 0.5645221 0.2413721 -1.0164162 -4.153865 -0.9298162
0.17224279 -1.267743 -4.727868 -1.046609 3.8065317 -0.5940688 -3.8752415 -0.0694307
-0.45374388 -0.5878235 -3.3764327 -1.0897382 -0.6646229 -0.03067116 0.7489171 0.72661126
3.7628667 -0.60646296 -3.8906486 -0.32418585 -0.5845728 -0.13688774 0.7352968 0.612549
-1.1843013 0.038664486 3.0526934 0.7897413 -0.98794436 -0.8501182 -3.2454934 -1.1274639
-1.5872514 -0.8109537 -0.26764965 -0.1726352 -0.8580555 -0.18665482 1.2327088 0.580991
-1.1644948 -0.119147934 3.2099779 1.4018277 1.1400845 -0.10441404 -2.4857962 -0.425881
-3.3412998 0.34213704 4.0457096 0.16850385 -1.3889612 -1.0384766 -0.9535748 -0.19789784
1.4575734 -1.5631382 -5.889408 -2.564426 0.31189102 -0.39125472 -0.10570514 -0.20273632
-0.7196642 -0.44795066 -0.06914858 0.10165983 -2.7939963 -0.08306487 2.6739662 1.506251
-1.2930754 -0.62861174 -0.2863155 -0.17998451 1.181337 0.8144761 -0.6038192 0.15053949
2.0367262 -0.996943 -4.359336 -1.3651402 0.496765 -0.8565402 -1.8424666 0.048921593
0.111773245 0.48712847 -0.009471787 -0.37552845 -1.7634176 0.046840463 2.9867792 1.0625901
1.9121679 -0.6755102 -5.1783385 -1.0403894 -1.067463 0.0821967 -0.4877113 -0.17753054
-0.09764784 -0.40221724 -4.1876636 -1.3127834 -1.1689616 0.34530216 1.350051 1.1064531
0.121820316 0.004652866 0.055195723 -0.040163938 -0.13018985 0.12899837 0.313955 -0.025029292
-0.076618776 0.32052124 -0.71007913 -0.87115043 1.4261236 -0.72044003 -2.9264092 -0.23377468
-0.9659222 -0.036877107 0.36240712 0.516712 -1.1507952 0.32152534 1.6702865 0.90000546
-0.019530458 0.61337405 0.58975345 -0.40388343 -0.4467349 -0.48555896 0.61732024 0.5776204
0.20398076 -0.8371292 -4.0012355 -0.5504974 -0.6122669 -1.210684 -2.7937744 -1.3253609
-2.8143163 0.48357564 3.841082 0.09837428 0.45301723 0.1182201 -0.45278057 -0.42444777

fc1.bias f4 [128]
00000000: 1bc2 733f f7f4 51bf 53d0 9e3f bf9c b23e
00000010: d88f 08bf 8753 9e3f 6794 ac3f aec8 003d
00000020: 1915 c43e 292c 71bf 77b4 9a3e 2314 e2bf
00000030: 1ebe b7bf 636e 82bf 9251 013f 6c06 133d
00000040: a24f 933f 1b92 febf 4f7b be3f 70c3 b23f
00000050: 8734 10c0 591c eabe 83b6 50bf 37ff a23f
00000060: 7571 e9bf c7e3 f9bf 2c05 debe 1ece 793f
00000070: 3ee9 e1bf c408 763f 0624 a83e 1a9d b03f
00000080: a1b8 953e d7ac aa3f fc06 01be d2dd 2540
00000090: eaab bf3f bcca 383f b7d3 17c0 d26a f5be
000000a0: 9c15 a13f 6586 21be c96b 983e 4d1d 763f
000000b0: c5d6 3dbf 488d 8b3e bee7 cf3f a3a0 47bc
000000c0: 8940 24bf 76e4 d9bf 8a6d 813f 0a13 973f
000000d0: 729d c3be 58a3 bd3f dcb7 1840 15f8 a7bc
000000e0: 4130 a73f 44c6 733f 4a35 e43f e1c6 973f
000000f0: b46e 8e3f c5b4 883f 4fbd 973f 89fd d23f
00000100: ec4c 56bf 64ed fabe 86d4 913f 5518 dd3f
00000110: a536 07c0 6f78 72be 0a31 bfbe a1c3 2740
00000120: 8167 ac3f 5458 1ebf 8ad5 533f b73d 983f
00000130: b901 b23f 9c6c c83f c5f5 5d3f 4900 01bf
00000140: d853 e7be 7568 eb3f 8c25 fc3e 8843 cd3f
00000150: c87a b7bf 62f7 b73f 1395 ce3f 1c1e 9f3f
00000160: 30f5 d7be 8830 41be 2bbe 7a3f 9536 3840
00000170: 87e1 ae3f e675 8a3f e660 b43f 2944 e7bf
00000180: c0f0 2d3f f0f4 973f 9793 003f b65d eebe
00000190: 5d96 b73f 0890 5d3f 119a a33f 1df0 da3f
000001a0: 882e 9c3f 2bc9 9f3f 6521 993f ec4d c43e
000001b0: 5836 963f 30aa b23f 351a af3f 38c6 f9be
000001c0: f290 9e3f e6a6 8bbf 7724 da3f 9b64 db3d
000001d0: 39b7 b1bf 48d4 c53f b6b3 bc3f 014e 8a3e
000001e0: d2a0 9a3e 5f77 a23f b03b 2f3e c1f0 bd3d
000001f0: 8100 9f3f edde 07bf 4548 9e3e faff 913f
0.95218056 -0.8201441 1.2407326 0.34885213 -0.5334449 1.236924 1.3482789 0.031441383
0.38297346 -0.9420801 0.3021581 -1.7662395 -1.4354894 -1.0189937 0.5051509 0.035894796
1.1508677 -1.9888338 1.4881381 1.3965893 -2.253206 -0.45724753 -0.8152849 1.2734135
-1.8237749 -1.9522637 -0.4336332 0.97580135 -1.7649305 0.96107125 0.32839984 1.3797944
0.29242423 1.3333997 -0.1260032 2.5916638 1.4974339 0.7218435 -2.372297 -0.4793306
1.258472 -0.15773924 0.29769734 0.9613846 -0.7415584 0.27256227 1.6242597 -0.012184295
-0.6416097 -1.7022846 1.0111554 1.1802685 -0.3820606 1.4815474 2.386222 -0.020504037
1.3061601 0.95224404 1.7828763 1.1857568 1.1127534 1.0680166 1.1854647 1.6483623
-0.83711123 -0.4900924 1.1392982 1.727305 -2.1127102 -0.23678754 -0.373421 2.6213152
1.3469087 -0.6185353 0.8274771 1.1893834 1.3906776 1.5658145 0.8670314 -0.5039106
-0.45181155 1.8391253 0.49247396 1.6036234 -1.4334345 1.437237 1.6139244 1.2431064
-0.4217925 -0.1886617 0.97946423 2.8783314 1.3662575 1.081723 1.4092071 -1.8067676
0.6794548 1.1871624 0.50225204 -0.4655587 1.4342762 0.865479 1.2781392 1.7104527
1.22017 1.2483267 1.1963316 0.383407 1.1735334 1.3958187 1.3679873 -0.4878404
1.2387984 -1.0910308 1.7042378 0.10712548 -1.388404 1.5455408 1.4742343 0.27012637
0.3020082 1.2692679 0.17112613 0.09274436 1.2422029 -0.5307453 0.30914512 1.1406243

fc2.weight f4 [2, 128]
00000000: 90a1 e5bf f7a1 c3bf 54d3 543f 7057 153f
00000010: 5b2b 12c0 ebad 4a3f b7c7 3f3f 1d07 0c3f
00000020: 4dca 7e3f 742d 1ac0 704e 613f 8bd9 82bf
00000030: 2bf5 8240 e4c3 bbbf 8a39 1c3f 064f 3d40
00000040: df1a 2f3f e65b 1cbf dad6 423f 6f4f 223f
00000050: 39a0 04c1 6c06 9dbc 93a4 91bf fabf bebf
00000060: 5ed4 e7bf 18c7 19c0 6449 a9bf ad8a 043f
00000070: 0ce6 4bc0 b3ae 1d3f f9df 46bf 313c 85bf
00000080: 454a 013f 7670 173f fee8 f5be 8e5e 4440
00000090: 2ec9 61bf ea0a 333f bdce 1dc1 78ea c3bc
000000a0: 3432 3b3f f131 53bf 0b2a 563f 499d b43f
000000b0: 6d78 27c0 eeb0 093f 36c0 503f bd98 a4bf
000000c0: 251f 38c0 ff15 2fc0 a8a1 d6bf e387 f33e
000000d0: aa01 693d b9fc 1e3f e4bb 5840 8207 e03e
000000e0: 4af0 3f3f eefb b53d 293f 4d3f 59eb ee3e
000000f0: 8fa9 6abf 56a5 c0bf 511b b0bf 8a11 4f3f
00000100: 175a 8cc0 2bec 82bf 00e6 0b3f 032c 5e3f
00000110: 27f4 23c0 4011 2bbf 80e8 07bf cd61 3740
00000120: baf2 86bf a8e9 c4bf c3df 303f d53f 353f
00000130: 258e d53e dad0 423f 1c11 da3e 0c1c 4b3c
00000140: 4fcf 923d a243 413f bf87 553f 9df7 633f
00000150: 2803 edbf 2e8d d63e 445b 203f c2c9 973e
00000160: 7e1b 5b3d 7bb4 3bbd 0600 cfbe c4ac 2340
00000170: 0b31 29bf 9506 3dc0 1da9 143f 537f 6dbf
00000180: 139a ea3f 652a 95bf c0d9 f83e 06e9 83bf
00000190: 7ae8 c43e cbed 2abf 7173 5f3f 0ea5 4a3f
000001a0: e46a 073f 1204 013f ba1b 333f 3196 353f
000001b0: 2481 dfbf b880 1d3f 395a d4be 0030 1938
000001c0: 2992 303d 8c55 b0bf 5c08 433f 8125 863f
000001d0: 284c dac0 3f9f 6b3e e2e0 503f 2bf3 153f
000001e0: 0916 083f bab2 3b3f 1b30 d83e 672b e43e
000001f0: 6b62 1bbf c0c2 bd3a e211 7cbf 03d6 0c3f
00000200: f8ba 9dbf c74c 59bf f846 683f dfe2 5e3f
00000210: a0e1 55c0 cd39 863f f187 733f 1964 023f
00000220: ac2c 723f 58c9 90bf 271a 813f a6ae 5fc0
00000230: deff 81c0 971b 07c0 f125 683f ec02 2b40
00000240: 14a4 453f 8f2d d2bf 49fb ab3f c474 083f
00000250: 8686 203f 7067 14bd fc10 febf 6590 d6bf
00000260: dbd2 51c0 5b19 e3bf fb46 57bf 687e 593f
00000270: c094 3fbf bc1b 503f d9ec 0bc0 be26 24c0
00000280: 786d 723f 2c1f 5c3f a32d e5bf b229 523f
00000290: 0ad5 afbf 9864 683f aa50 893f 20b7 51bd
000002a0: 4b4e 4f3f c6c1 9bbf f59c 6f3f f1a0 863f
000002b0: d3b4 6ac0 d8a2 543e 7b05 9a3f 0f65 adbf
000002c0: a098 57c0 86aa cb3c b7a4 8abf 44de 933f
000002d0: 8210 183d 592d 3d3f b5fd ec3f 9c6b 7abf
000002e0: faa3 653f 986c 6b3f 060d a83f 7baf 2e3f
000002f0: e433 f3bf 54c7 16c0 8be7 28bf 6844 773f
00000300: ad3c 26c0 2c93 dbbf fda3 413f cf67 993f
00000310: e3b6 36c0 541a 92bf 2471 7bbf 4e10 943f
00000320: a655 acbf e983 54c0 acb6 1f3f 1c6d 733f
00000330: 8da7 5e3f 5043 653f 08ab 4c3f 8794 853d
00000340: 9048 853b b0d3 b93f c882 443f f0a2 af3f
00000350: 2a32 bdbe e04e 7a3f b8aa 8a3f 1559 793f
00000360: 80bd b93a 947f 26bd c751 21bf c6b9 9f3f
00000370: f6ed 9cbf e3dd 09bf ed1c aa3f 96a2 07c0
00000380: 714c 5340 97b7 f3bf 80ee 6c3f 935a 11c0
00000390: 20be 5d3f 8df6 87bf 720f 743f 6f3c 903f
000003a0: 796a fa3e 7686 573f 54b5 253f ac7d 8b3f
000003b0: 5aa5 f4bf 63e1 803f 83c3 96bf 0099 b4bb
000003c0: 47ca 8c3f 4c0c 0cc0 1129 873f 9be8 4d3f
000003d0: 612d 2ec0 9e72 a73f dac5 823f 0f6f 8e3f
000003e0: 4b32 4d3f 2196 943f 9501 993f 036e 663f
000003f0: 8b0d 7fbf c2b5 7e3d 9ae1 80bf 052a 873f
-1.793993 -1.5283803 0.8313496 0.58336544 -2.2838962 0.7917163 0.74914116 0.54698354
0.99527436 -2.4090242 0.8801031 -1.0222639 4.0924277 -1.4669156 0.610253 2.9579482
0.6840038 -0.61077726 0.7610909 0.63402456 -8.289117 -0.019168101 -1.1378349 -1.4902337
-1.8111684 -2.4027767 -1.3225522 0.517741 -3.185916 0.61594695 -0.77685505 -1.0408994
0.5050395 0.59155977 -0.4802932 3.0682712 -0.881976 0.6993853 -9.862973 -0.023915514
0.7312348 -0.8249808 0.836579 1.41105 -2.6167252 0.537856 0.8154329 -1.2859112
-2.876901 -2.7357175 -1.6768084 0.4756461 0.056886353 0.62104374 3.386468 0.43755728
0.74976027 0.088859424 0.801745 0.4666393 -0.91664976 -1.5050457 -1.3758336 0.8088614
-4.3859973 -1.0228323 0.5464783 0.86785907 -2.5617769 -0.66823196 -0.5308914 2.8653443
-1.0542824 -1.5383806 0.69091433 0.70800525 0.4171001 0.7609993 0.42591178 0.012396824
0.07168447 0.75493824 0.8341026 0.890497 -1.8516588 0.41904587 0.6263926 0.29646116
0.053493015 -0.045826416 -0.40429705 2.5574198 -0.6609046 -2.9535267 0.58070546 -0.92772406
1.832827 -1.1653563 0.4860363 -1.0305488 0.38458616 -0.66769093 0.87285525 0.79158103
0.5289748 0.50396836 0.6996418 0.709323 -1.7461286 0.61524534 -0.41475084 3.6522746e-05
0.04310814 -1.3776107 0.7618463 1.0480195 -6.8217964 0.23009966 0.81593144 0.5857417
0.5315862 0.7331959 0.42224202 0.44564363 -0.6069705 0.0014477596 -0.98464787 0.55014056
-1.2322683 -0.8488278 0.9073329 0.8706493 -3.341896 1.0486389 0.95129305 0.50933987
0.94599414 -1.1311445 1.0086106 -3.4950347 -4.062484 -2.111059 0.90682894 2.6720533
0.7720349 -1.6420153 1.3436061 0.5330317 0.62705266 -0.03623146 -1.9848933 -1.6762816
-3.2784946 -1.7742113 -0.8409268 0.84958506 -0.7483635 0.8129232 -2.186331 -2.5648646
0.94698286 0.85985065 -1.7904552 0.8209487 -1.3736889 0.90778494 1.0727742 -0.051200032
0.8097884 -1.216851 0.9359887 1.0517865 -3.6672866 0.20765245 1.2032923 -1.3546466
-3.3686905 0.024861585 -1.0831517 1.1552205 0.037125118 0.7389732 1.8514925 -0.9782045
0.89703333 0.91962576 1.3128974 0.6823651 -1.9000211 -2.355916 -0.65978307 0.96588755
-2.5974534 -1.7154288 0.7564085 1.1984805 -2.8549125 -1.1414285 -0.98219514 1.1567476
-1.3463638 -3.3205512 0.6238811 0.9508836 0.8697441 0.89555836 0.7994847 0.0652247
0.004067488 1.4517727 0.76762056 1.37216 -0.36952335 0.97776604 1.0833349 0.97401553
0.0014170855 -0.04064901 -0.6301541 1.2478569 -1.226012 -0.538542 1.3290077 -2.1192985
3.3015406 -1.9040402 0.9255142 -2.2711532 0.8661823 -1.0622116 0.9533607 1.1268443
0.48909357 0.84189546 0.6472981 1.0897727 -1.9112961 1.0068783 -1.1778415 -0.005511403
1.099923 -2.1882505 1.0559407 0.8043305 -2.7215197 1.3081853 1.021663 1.1127642
0.80154866 1.1608316 1.1953608 0.90011615 -0.9963004 0.062185057 -1.0068848 1.0559698

fc2.bias f4 [2]
00000000: 753d d73e d818 873f
0.42039075 1.0554457
